experiment_1_0.0001.pth (torch, 37561 bytes, 5 tensors)

conv.weight f4 [48, 1, 3, 3]
0	0xbf4643f2	-0.77447426
1	0x3d84e164	0.06488302
2	0x3f85fbeb	1.0467504
3	0xbfe47332	-1.7847655
4	0xbe1fb2f3	-0.15595607
5	0x3ffca2e8	1.9737215
6	0xbf5c2e7c	-0.8600843
7	0x3d55e3cc	0.052219197
8	0x3f903010	1.1264668
9	0xbf2f21f6	-0.68411195
10	0xbfd66d4b	-1.6752104
11	0xbf36c29b	-0.71390694
12	0x3dfac6fc	0.122449845
13	0xbe14229e	-0.1446633
14	0x3e15ec24	0.14640862
15	0x3f975503	1.1822819
16	0x400188c1	2.0239718
17	0x3f964080	1.1738434
18	0xbbab6d2d	-0.0052315206
19	0x3d8a6682	0.06757833
20	0x3c1d5c61	0.009604544
21	0x3cedab74	0.02901242
22	0x3fd9c0f3	1.7012008
23	0x3d9aa863	0.075516485
24	0x3d4093ac	0.04701583
25	0x3d636e0b	0.055524867
26	0xbd06d2b6	-0.032915793
27	0xbf51a8e7	-0.8189835
28	0x3d202652	0.039099045
29	0x3f4d9a4e	0.80313575
30	0xbfe0c4ad	-1.7560021
31	0x3cfc3cd9	0.030790733
32	0x3fe27e3d	1.7694775
33	0xbf43ee70	-0.765357
34	0x3ca7636a	0.020433147
35	0x3f7d26df	0.9888744
36	0xbf5a5043	-0.8527872
37	0xbfe53a60	-1.790844
38	0xbf6dec1e	-0.9293841
39	0x3cae1e69	0.021254735
40	0x3d6ed2bb	0.058306437
41	0x3d51f0ae	0.05125492
42	0x3f6a6ad9	0.91569287
43	0x3fe45fec	1.7841773
44	0x3f69f543	0.91389865
45	0xbc970f48	-0.018439904
46	0x3d27c9a6	0.04096379
47	0xbdae6163	-0.08514669
48	0xbcf05ab8	-0.029340133
49	0x3fb52c22	1.4154093
50	0xbcf8efd1	-0.03038779
51	0xbd3def37	-0.04637071
52	0x3741a440	1.1541939e-05
53	0xbc70bafc	-0.014693018
54	0xbf383071	-0.71948916
55	0x3dacc744	0.084364444
56	0x3f5d3c26	0.86419904
57	0xbfec3f95	-1.8456904
58	0xbdde434c	-0.108526796
59	0x3ff6c8b2	1.9279997
60	0xbf5dbfb4	-0.8662064
61	0x3db4682b	0.08808931
62	0x3f955958	1.166789
63	0xbf6b4129	-0.918963
64	0xbff597f0	-1.9186993
65	0xbf7c9622	-0.98666584
66	0xbb4d2da5	-0.0031307724
67	0x3e0cb279	0.13739957
68	0x3e093d4e	0.13402292
69	0x3f5f01e1	0.8711224
70	0x3fdd3728	1.7282457
71	0x3f760f26	0.96116865
72	0x3c9fcf87	0.019508136
73	0xba2cee82	-0.000659682
74	0x3ca4c05d	0.020111257
75	0x3d69c314	0.057070807
76	0x3fd0d534	1.6315064
77	0x3dc00968	0.09376794
78	0x3c92cdb5	0.017920354
79	0x3d1542a4	0.036440507
80	0xbde4d0f4	-0.11172667
81	0xbf653bc5	-0.89544326
82	0x3d5dbe62	0.05413664
83	0x3f600553	0.87508124
84	0xbfe0a7d2	-1.7551215
85	0x3dbbbb08	0.09166533
86	0x3fe5d628	1.795598
87	0xbf6332c6	-0.8874935
88	0x3d5cbe09	0.05389217
89	0x3f8725d2	1.0558417
90	0xbf4097f0	-0.7523184
91	0xbfda6559	-1.7062179
92	0xbf48a9f0	-0.78384304
93	0x3d9c476b	0.076308094
94	0x3ca89a07	0.020581258
95	0x3e3ca20c	0.18421191
96	0x3f8d3df1	1.1034528
97	0x3ff4abfd	1.9114987
98	0x3f86a9c2	1.0520556
99	0xbc89e76c	-0.016833983
100	0xbb283f09	-0.0025672338
101	0xbd2d4936	-0.042306148
102	0xbd648d2f	-0.055798706
103	0x3fa22b25	1.2669417
104	0xbd031087	-0.031998184
105	0xbcef9afe	-0.02924871
106	0xbcb69e37	-0.02229224
107	0xbd5fb202	-0.05461312
108	0xbf84d7b4	-1.0378327
109	0xbdfd623d	-0.12372253
110	0x3f60064d	0.87509614
111	0xbfdbe599	-1.7179443
112	0xbd033808	-0.032035857
113	0x3fed2f77	1.853011
114	0xbf686657	-0.9078116
115	0xbcf11c42	-0.02943242
116	0x3f888678	1.0666037
117	0xbf847a43	-1.0349811
118	0xbffb7602	-1.9645388
119	0xbf614df7	-0.8800959
120	0xbd0f39e5	-0.034967322
121	0x3d84b4ab	0.06479772
122	0x3d8fe83c	0.07026717
123	0x3f940ced	1.1566445
124	0x3fde8ce8	1.7386751
125	0x3f904165	1.1269957
126	0xbea75221	-0.32679847
127	0x3d323121	0.043503884
128	0x3d9c9c14	0.07646957
129	0x3df10d3c	0.117701024
130	0x3fc3b76c	1.5290351
131	0x3d3c7d0e	0.0460177
132	0xbbe8186e	-0.0070829904
133	0x3d09cc33	0.033642005
134	0xbe904ac5	-0.28182045
135	0xbf8b95d3	-1.0905098
136	0xbdcde4d0	-0.10053408
137	0x3f79c9e5	0.9757369
138	0xbfeb8794	-1.840075
139	0xbd7c2a4e	-0.061563782
140	0x3fde9259	1.7388412
141	0xbf8141a0	-1.0098152
142	0x3d30fe1d	0.04321109
143	0x3f8b4be8	1.088254
144	0xbf802762	-1.0012019
145	0xbff2553c	-1.8932261
146	0xbf5f75f8	-0.8728938
147	0xbd71cf6d	-0.059035707
148	0xbd38ac0d	-0.045085955
149	0x3d20eae3	0.039286505
150	0x3f851baa	1.0399067
151	0x3ff3c4de	1.9044454
152	0x3f9802ea	1.1875889
153	0xbe8d9b43	-0.27657518
154	0x3bcf9455	0.006334821
155	0xbdde7a80	-0.10863209
156	0x3c85f633	0.016352748
157	0x3fb67c24	1.4256635
158	0x3d6fdf4a	0.058562554
159	0xbd9275a8	-0.071513474
160	0xbb65209c	-0.0034962064
161	0xbe74b49c	-0.23897022
162	0xbf5c55ad	-0.8606823
163	0x3d1c5401	0.03816605
164	0x3f9540c6	1.1660392
165	0xbfe36ca2	-1.7767527
166	0x3bfa434f	0.0076374183
167	0x3ffcbf6a	1.9745915
168	0xbf53ccfe	-0.8273467
169	0x3d905482	0.070473686
170	0x3f99c094	1.2011895
171	0xbf2e6fb7	-0.68139213
172	0xbfd712ab	-1.6802572
173	0xbf49ba50	-0.78799915
174	0xbcfff690	-0.0312455
175	0xbe4745cd	-0.1946022
176	0x3d69823f	0.057008978
177	0x3f80f6b5	1.0075289
178	0x40021a17	2.0328424
179	0x3fa80712	1.3127158
180	0xbe6ad867	-0.22934113
181	0x3d2ea7f1	0.04264063
182	0xbe04831d	-0.12940641
183	0x3d367a85	0.044550437
184	0x3fc53d8f	1.5409411
185	0xbbf9e4f6	-0.007626171
186	0xbdb037ee	-0.08604418
187	0x3b819c17	0.003955375
188	0xbe9fff76	-0.3124959
189	0xbf9c560f	-1.2213763
190	0xbe5f20a8	-0.21789801
191	0x3f553151	0.83278376
192	0xbff4b81e	-1.9118688
193	0xbe19a24d	-0.15003319
194	0x3fd92251	1.6963598
195	0xbf7cae4a	-0.98703444
196	0xbe03acfc	-0.12858957
197	0x3f8790fb	1.059112
198	0xbf7e9e52	-0.9946033
199	0xbff0164b	-1.8756803
200	0xbf7b4c9d	-0.9816378
201	0x3b1094ae	0.0022061276
202	0x3b16bfc4	0.0023002485
203	0x3da5a0a3	0.0808728
204	0x3f6ba71e	0.92051876
205	0x3ff2383d	1.8923413
206	0x3f843d15	1.0331141
207	0xbdfda0e7	-0.12384205
208	0x3e0fb026	0.14032039
209	0xbd658b41	-0.056041006
210	0x3e060cc2	0.13090804
211	0x3fca7f64	1.5820127
212	0x3e8c2fae	0.27380127
213	0xbdf799d5	-0.12089888
214	0x3d8ff7d7	0.070296936
215	0xbe0327a1	-0.12808086
216	0xbf8a17f3	-1.0788559
217	0xbda673f9	-0.08127589
218	0x3f828dca	1.019952
219	0xbfecb291	-1.8491994
220	0x3c44b087	0.012004978
221	0x3fe6358e	1.7985094
222	0xbf849245	-1.0357138
223	0x3df8d5c7	0.1215015
224	0x3f6ae3f0	0.91754055
225	0xbf8556f0	-1.0417156
226	0xbff19486	-1.8873451
227	0xbf6ae0a3	-0.9174902
228	0x3d153826	0.0364305
229	0x3c07af4e	0.008281542
230	0x3c543248	0.012951441
231	0x3f658734	0.8965943
232	0x3ff06bb1	1.8782865
233	0x3f8a5506	1.0807197
234	0xbdb2480a	-0.087051466
235	0x3d896573	0.06708803
236	0xbda28e0e	-0.07937251
237	0x3d5d41eb	0.054017942
238	0x3fc4e054	1.538096
239	0x3d35a315	0.04434498
240	0xbd7412b1	-0.059588138
241	0x3d7e53e0	0.06209171
242	0xbe44f947	-0.19235717
243	0xbf44125b	-0.7659051
244	0x3c4b741c	0.012417819
245	0x3f74df95	0.9565366
246	0xbfd18d63	-1.6371273
247	0xbe9ef17b	-0.3104361
248	0x3fef5a18	1.869937
249	0xbf564123	-0.8369314
250	0x3d41681a	0.04721842
251	0x3f995b37	1.1980962
252	0xbf710940	-0.9415474
253	0xbfe05925	-1.7527205
254	0xbf8c75ff	-1.097351
255	0xba046681	-0.00050506747

dense1.weight f4 [128, 48]
0	0x3d1104e5	0.03540506
1	0xbcd6bf7b	-0.026214352
2	0xbeed5fd6	-0.4636218
3	0x3c5b5076	0.013385883
4	0x3e0f6025	0.1400152
5	0xbeb3980d	-0.35076943
6	0xbde13137	-0.10995715
7	0xbd070e8d	-0.03297286
8	0xbe409eae	-0.18810531
9	0x3c288888	0.010286458
10	0xbdaa301c	-0.083099574
11	0xbf71a4b0	-0.9439192
12	0xbd222196	-0.03958281
13	0xbdc0f788	-0.09422213
14	0x3d94e7a4	0.072707444
15	0x3bfa6ea6	0.007642585
16	0xbe279b45	-0.16367824
17	0xbe25b0c0	-0.16180706
18	0x3dc92e3a	0.0982327
19	0xbc4f7734	-0.012662698
20	0xbd83effb	-0.06442257
21	0x3992bf35	0.0002798975
22	0x3dcd1485	0.100136794
23	0x3e465297	0.19367443
24	0xbd72152e	-0.05910223
25	0xbd6a2909	-0.05716804
26	0x3de1d0a0	0.1102612
27	0x3dd9ffe4	0.106445104
28	0xbdf0c971	-0.11757172
29	0x3da10858	0.078629196
30	0x3d5ce0b7	0.053925242
31	0x3d8ce31c	0.06879255
32	0x3e2eae51	0.17058684
33	0x3d25495c	0.040353164
34	0x3d72a180	0.05923605
35	0x3d381f83	0.044951927
36	0xbd8bb208	-0.06821066
37	0x3cb06022	0.021530215
38	0xbe0f4676	-0.13991722
39	0xbd662edc	-0.056197032
40	0xbd56d7e2	-0.052451976
41	0xbe3dbf34	-0.1852997
42	0xbdb4e55a	-0.08832808
43	0xbc0d7ba6	-0.008635437
44	0x3d1b0286	0.037844203
45	0x3c4fb6cb	0.012677859
46	0xbd2572d5	-0.040392715
47	0x3cdd7d84	0.02703739
48	0xbdcdaecf	-0.10043108
49	0xbd6b7387	-0.057483222
50	0x3ed0fb9f	0.40816972
51	0x3d113869	0.035454188
52	0xbc75b729	-0.014997282
53	0xbed87114	-0.42273772
54	0x3b46fdc6	0.0030363663
55	0x3c318140	0.010834038
56	0xbeb42446	-0.35183924
57	0xbd9df9f6	-0.07713692
58	0xbd5c9039	-0.05384848
59	0x3e57cb3a	0.21073619
60	0xbd94cde9	-0.07265837
61	0xbd896ee4	-0.06710604
62	0xbc946748	-0.018115655
63	0xbc8ed58e	-0.017435815
64	0xbdc7b3fd	-0.09751127
65	0xbe89db96	-0.26925343
66	0x3da81c3b	0.082085095
67	0x3d9c274c	0.07624683
68	0x3daf590b	0.085619055
69	0xbdd9f3ef	-0.1064223
70	0xbd22db8a	-0.03976015
71	0x3ead294f	0.33820578
72	0xbd5e1d48	-0.054227144
73	0xbde29b8f	-0.11064827
74	0xbdc01023	-0.09378078
75	0x3b2e0dbe	0.0026558484
76	0xbd77275b	-0.060340267
77	0x3e331bce	0.17491075
78	0x3d86fe55	0.06591479
79	0x3d59b364	0.053149596
80	0x3ba87894	0.005141327
81	0x3e19036e	0.14942715
82	0x3cfdf3e9	0.031000094
83	0xbd00de46	-0.031461976
84	0x3b1ad370	0.0023624562
85	0xbd8c6548	-0.06855255
86	0xbe030e3d	-0.127984
87	0x3d7d0d10	0.061780035
88	0x3e1622e4	0.14661747
89	0xbd72c44d	-0.05926924
90	0xbd624b87	-0.05524781
91	0x3c7c25ca	0.015389869
92	0x3dc52c28	0.09627563
93	0xbdb4c4f4	-0.08826628
94	0xbcc5c9a5	-0.024144003
95	0xbe7d3b0c	-0.24729556
96	0x3db44966	0.08803062
97	0xbd9e2a63	-0.077229284
98	0x3d632b58	0.055461258
99	0xbdbb217c	-0.09137246
100	0xbd6b730e	-0.05748277
101	0xbe257bd1	-0.16160513
102	0x3d4ee2b2	0.050509162
103	0x3e0865b7	0.13320051
104	0xbe667464	-0.22505337
105	0xbd5c569f	-0.053793546
106	0x3d8f3cde	0.06994031
107	0x3d443398	0.047900766
108	0xbdc2ec0f	-0.09517681
109	0xbc3f5cff	-0.011679887
110	0xbc8bf517	-0.017084641
111	0x3e0978c6	0.13424978
112	0x3e3922c7	0.18079673
113	0x3cefeefa	0.029288758
114	0x3d43ab79	0.04777095
115	0x3e2a3d57	0.16624962
116	0x3d0fe153	0.035126995
117	0xbdf81bdb	-0.12114688
118	0xbc9cfb84	-0.0191629
119	0x3dd4720f	0.103733175
120	0xbdf7bcc9	-0.12096555
121	0x3dc92bd1	0.098228104
122	0x3c49f619	0.012326741
123	0x3d9ef0a3	0.077607416
124	0x3e37cd70	0.17949462
125	0xbe888194	-0.2666136
126	0xbe12556d	-0.142904
127	0xbdb13e78	-0.08654493
128	0x3dc69e76	0.09698193
129	0x3d2d8248	0.042360574
130	0x3e0535ea	0.13008848
131	0x3e8761f2	0.26441914
132	0x3d8a97af	0.067672126
133	0xbe05141d	-0.12995954
134	0x3d3dc09f	0.046326276
135	0x3dce09b9	0.10060448
136	0x3daf9df9	0.08575053
137	0x3c4c5d77	0.012473456
138	0x3da62399	0.081122585
139	0x3d66374e	0.056205086
140	0x3debd733	0.11515655
141	0x3ab78895	0.0014002497
142	0x3ddd7c3c	0.108147115
143	0xbea14a9e	-0.3150224
144	0x3d00655e	0.03134667
145	0x3df91d36	0.12163775
146	0xbea6ecfb	-0.32602677
147	0x3cb70826	0.022342753
148	0x3d851abc	0.0649924
149	0x3cf1ade4	0.029501863
150	0x3d3e771f	0.04650032
151	0x3dc9d80f	0.09855663
152	0xbe5ceafc	-0.21574014
153	0xbcf1a697	-0.029498382
154	0xbd0fdbd5	-0.035121758
155	0xbddac734	-0.10682526
156	0xbd8e9019	-0.06961078
157	0x3c8aa80f	0.01692584
158	0xbd42b573	-0.047536325
159	0x3db0d231	0.08633841
160	0x3e4ff470	0.2030809
161	0xbea0535a	-0.31313592
162	0x3c251470	0.010075673
163	0x3c96e67d	0.018420452
164	0x3d429675	0.04750677
165	0x3be043e9	0.006844033
166	0x3db69f99	0.089171596
167	0xbe5233c3	-0.20527558
168	0x3dbae174	0.09125033
169	0x3e311d01	0.1729622
170	0xbf0002c9	-0.5000425
171	0x3dee274e	0.116285905
172	0xbb0fa6e4	-0.0021919543
173	0xbe0da8f5	-0.13833983
174	0xbd7bcaa3	-0.061472546
175	0xbbd47787	-0.0064839753
176	0x3e0ce82b	0.1376044
177	0x3d0423ae	0.03226059
178	0x3d3bf1b2	0.045884795
179	0xbe296431	-0.16542126
180	0x3d0e9e75	0.034819085
181	0x3d7bff80	0.06152296
182	0xbf153d6a	-0.58296835
183	0x3ce12aa3	0.027486151
184	0x3e458780	0.1928997
185	0xbe3b971f	-0.18319367
186	0x3a9022ef	0.0010996739
187	0x3e2c637c	0.16834825
188	0xbf093a0c	-0.536042
189	0x3defdff6	0.11712639
190	0x3da880e0	0.08227706
191	0xbe0d0409	-0.1377107
192	0xbc5e949c	-0.013585236
193	0xbbfa74d3	-0.007643321
194	0xbd191333	-0.037371825
195	0xbd948de4	-0.07253626
196	0x3e069ab1	0.13144948
197	0xbe3219b5	-0.17392619
198	0xba67e2cc	-0.0008845746
199	0x3e51c5ad	0.20485564
200	0x3aef780a	0.0018270027
201	0x3c5501c9	0.013000914
202	0x3d0845a3	0.033269536
203	0xbd38600a	-0.045013465
204	0xbdbc968f	-0.09208404
205	0x3d925aac	0.071462005
206	0xbd81f7d0	-0.063460946
207	0xbd338b56	-0.043834053
208	0xbe279ee3	-0.16369204
209	0xbed8f353	-0.42373142
210	0xbda98c0a	-0.082786635
211	0x3d7f1d8a	0.06228403
212	0x3e6f4890	0.23367524
213	0x3e11d884	0.1424275
214	0x3d3787ef	0.04480737
215	0xbda35254	-0.07974687
216	0xbbe0821f	-0.006851449
217	0x3c846e81	0.016165974
218	0xbdf312ba	-0.11868806
219	0x3de1e907	0.110307746
220	0xbdcf7ed5	-0.10131613
221	0x3e0dd081	0.13849069
222	0x3e0e6ae7	0.13907968
223	0xbd31a50f	-0.043370303
224	0xbda5d370	-0.08096969
225	0xbd97bc65	-0.0740898
226	0x3cb883e7	0.022523833
227	0x3e55eb04	0.20890433
228	0x3d887c0e	0.066642866
229	0xbe081327	-0.13288556
230	0x3e47f270	0.19526076
231	0x3d5b9d2c	0.053616688
232	0x3d6de1bf	0.058076616
233	0x3e082662	0.13295892
234	0x3e346f83	0.17620663
235	0x3e02b88b	0.1276571
236	0xbd623131	-0.055222694
237	0xbd15a973	-0.036538552
238	0x3c29657b	0.010339136
239	0xbe38038d	-0.17970105
240	0xbd17b263	-0.037035357
241	0x3da54049	0.08068902
242	0xbe7e346f	-0.2482469
243	0x3d9403cb	0.07227286
244	0x3ce59169	0.028023439
245	0x3e327b52	0.17429855
246	0x3dfe2e04	0.124111205
247	0xbd512cb2	-0.051068015
248	0xbe9640ad	-0.2934622
249	0x3c8c8150	0.017151505
250	0x3cb1f17f	0.0217216
251	0xbc005520	-0.007832795
252	0x3ca8e474	0.020616747
253	0xbac5be1c	-0.0015086564
254	0x3e905c7f	0.2819557
255	0x3e2cbc08	0.16868603

dense1.bias f4 [128]
0	0x3916f724	0.00014397182
1	0x3dfc307f	0.123139374
2	0x3d987bf9	0.07445521
3	0x3deb33b5	0.11484472
4	0xbdad135a	-0.08450957
5	0x3dccf291	0.10007203
6	0x3df9d7a8	0.12199336
7	0xbe0282ce	-0.1274521
8	0x3d302b25	0.043009896
9	0xbe1a0081	-0.15039255
10	0x3db3177e	0.08744715
11	0xbdb56d39	-0.08858723
12	0xbeb4c9c1	-0.35310176
13	0x3d4906d8	0.049078792
14	0xbe7b814b	-0.2456104
15	0x3db820a4	0.08990601
16	0x3d92260b	0.07136162
17	0xbe93e6b9	-0.28886965
18	0xbdc65231	-0.096836455
19	0xbe091c72	-0.13389757
20	0xbb8129ff	-0.003941774
21	0xbd9237c0	-0.0713954
22	0xbda4286a	-0.08015521
23	0xbe080edf	-0.13286923
24	0x3dfc58f0	0.12321651
25	0xbe028da2	-0.12749341
26	0xbdf90e1e	-0.12160896
27	0xbe46fdc1	-0.19432737
28	0x3e061f3d	0.13097854
29	0x3e0003c7	0.12501441
30	0xbd46cfc1	-0.048537973
31	0xbd7370d0	-0.05943376
32	0x3d8475e9	0.06467802
33	0xbe4e38fb	-0.20138924
34	0xbdd2ba99	-0.10289497
35	0x3b1dd26c	0.002408172
36	0x3d62cd0e	0.055371337
37	0x3da50725	0.08058003
38	0x3e256885	0.16153152
39	0xbdc17790	-0.09446633
40	0xbde639c6	-0.11241488
41	0x3d206db9	0.03916714
42	0xbd90c7d2	-0.07069363
43	0xbbb7362b	-0.005591174
44	0xbdc77821	-0.0973971
45	0x3e8f69b4	0.28010333
46	0x3e294f71	0.1653421
47	0x3d1d0089	0.03833059
48	0x3d9d5dac	0.07683882
49	0xbd1d6df4	-0.038434938
50	0x3e240268	0.16016543
51	0x3daa914a	0.08328493
52	0xbec9711f	-0.39344117
53	0x3e12582f	0.14291452
54	0x3dd8873e	0.105726704
55	0xbde84f39	-0.113432355
56	0xbed09b64	-0.40743554
57	0x3bca56ba	0.0061748894
58	0xbece68fa	-0.40314466
59	0x3e070608	0.13185894
60	0x3da1f2f4	0.07907668
61	0xbdfe6b31	-0.12422789
62	0x3dae5a10	0.08513272
63	0xbe9199b7	-0.28437588
64	0xbce158a2	-0.027508084
65	0x3d6079f2	0.054803796
66	0xbe4cd33d	-0.20002456
67	0x3d550009	0.052001987
68	0xbe088be8	-0.1333462
69	0xbe1ecebd	-0.15508552
70	0xbc3ba4c1	-0.011452855
71	0xbe271085	-0.16314895
72	0xbd925b75	-0.0714635
73	0x3db17a77	0.086659364
74	0x3dddf978	0.10838598
75	0xbe81f8d0	-0.2538514
76	0xbc2c42a3	-0.010513934
77	0xba2dbf9c	-0.00066279783
78	0xbc3cf067	-0.011531926
79	0xbd4e70d2	-0.050400563
80	0x3d59ebea	0.0532035
81	0xbe4e2671	-0.20131852
82	0x3cd5b68f	0.026088027
83	0x3d51acbe	0.05119013
84	0x3dcbeb74	0.099570185
85	0x3e08b6ec	0.13351029
86	0xbda309bc	-0.07960841
87	0x3c681a24	0.014166389
88	0xbe9617a2	-0.29314905
89	0xbd7e00fa	-0.06201265
90	0x3de7e69d	0.11323283
91	0xbdf34d5f	-0.11879992
92	0xbd921076	-0.07132046
93	0xbe4fa3ec	-0.20277375
94	0x3d99886e	0.07496725
95	0x3cf9d048	0.030494824
96	0x3c6ea983	0.014566782
97	0x3dbcceb7	0.09219115
98	0xbed4fcc0	-0.41599083
99	0x3e2c0318	0.16798055
100	0x3d1ff12b	0.039048355
101	0x3cbb965e	0.02289885
102	0x3cacf87f	0.021114586
103	0x3e23e4e6	0.16005287
104	0xbed02add	-0.40657702
105	0x3b1b73fb	0.0023720253
106	0xbea044b7	-0.31302425
107	0x3de45520	0.11149049
108	0x3bbd863e	0.005783825
109	0x3e099326	0.13435039
110	0x3d0f80db	0.035034996
111	0xbbaabce3	-0.0052105053
112	0xbd85dac4	-0.06535867
113	0xbd3c471b	-0.04596625
114	0xbc6f57dd	-0.014608351
115	0xbde7bc9e	-0.11315273
116	0x3d40415b	0.046937328
117	0xbdf8ce5c	-0.12148735
118	0x3dc40786	0.095717475
119	0x3d3c25b9	0.045934413
120	0xbd7b02f0	-0.0612821
121	0xbdf7e998	-0.12105101
122	0xbe378a53	-0.1792386
123	0x3d8976e1	0.067121275
124	0x3bb7c149	0.005607758
125	0xbd0f1803	-0.03493501
126	0x3d2158f7	0.039391484
127	0xbd7efca1	-0.062252644

dense2.weight f4 [16, 128]
0	0xbba46448	-0.0050168373
1	0xbe0333ec	-0.12812775
2	0xbd7868f7	-0.060646977
3	0x3d5b2491	0.05350167
4	0x3c8f4baf	0.017492143
5	0x3d1b69e0	0.037942767
6	0xbd89729b	-0.067113124
7	0x3d1f6b3a	0.03892062
8	0xbb3edb53	-0.0029122427
9	0xbd55a389	-0.052157912
10	0x3b8a4ca1	0.0042205607
11	0xbc815275	-0.015786389
12	0xbdb2e8d2	-0.08735813
13	0x3d746282	0.059664257
14	0xbc341db6	-0.010993412
15	0x3d11a4e8	0.035557657
16	0xbd50deda	-0.050993778
17	0xbe0f34ac	-0.13984936
18	0x3cb67c56	0.022276085
19	0xbe025331	-0.12727048
20	0xbd04e11c	-0.032441244
21	0x3d7e2947	0.062051084
22	0xba084a18	-0.0005199029
23	0x39751ae5	0.0002337504
24	0x3cb4c820	0.022068083
25	0xbd8d6d88	-0.06905657
26	0x3c1fbdd1	0.009749846
27	0xbc610720	-0.013734609
28	0x3d91da6a	0.07121737
29	0x3d61122d	0.054948974
30	0x3de599a0	0.11210942
31	0x3db3e655	0.08784167
32	0xbc15968c	-0.009130131
33	0xbcbd8484	-0.023134477
34	0xbc2dbcc3	-0.010604086
35	0xba820bc1	-0.0009921716
36	0x3d9a6292	0.07538332
37	0x3daae587	0.0834456
38	0x3c0b1d1e	0.008490829
39	0x3d996b75	0.07491199
40	0xbd0adf82	-0.03390456
41	0x3dc2b757	0.095076256
42	0xbd02afcc	-0.031905934
43	0x3dd75b8d	0.10515509
44	0xbcd7d4ab	-0.026346525
45	0xbce12ab3	-0.02748618
46	0x3aca7c3f	0.0015448405
47	0xbcd029c2	-0.025410537
48	0x3c2aec9b	0.010432388
49	0x3d882272	0.06647195
50	0x3c8a2d34	0.016867258
51	0xbd551ae3	-0.052027594
52	0x3cf793fb	0.03022193
53	0x3d0a4108	0.033753425
54	0x3e02f9fb	0.12790672
55	0xbc4b57a2	-0.01241103
56	0xbd25299d	-0.04032289
57	0xbd144ae2	-0.036204226
58	0xbd890a96	-0.06691472
59	0x3ce1a113	0.027542626
60	0x3d115f94	0.03549154
61	0xbbbf6abc	-0.005841581
62	0x3c69696b	0.014246325
63	0xbd8d3c2d	-0.06896243
64	0xbc7066e1	-0.014672966
65	0x3c8a1cd3	0.016859448
66	0x3c6067c2	0.013696613
67	0x3d8d17e2	0.06889321
68	0xbc851726	-0.01624639
69	0xbd13479a	-0.035956956
70	0x3cf2ff68	0.029662803
71	0xbd80e0a8	-0.0629285
72	0xbd22886a	-0.039680876
73	0x3d888d82	0.066676155
74	0x3c90d01e	0.017677363
75	0xbdd331ec	-0.10312256
76	0x3cc17ccc	0.023619078
77	0x3d73f54e	0.059560113
78	0x3d2185b1	0.03943414
79	0xbc216463	-0.009850594
80	0x3dc0331b	0.093847476
81	0xbcb95941	-0.022625567
82	0x3c9b9c62	0.018995468
83	0x3d5ce29f	0.05392706
84	0x3c06b880	0.008222699
85	0x3cc56c1c	0.024099402
86	0xbcda8cb4	-0.02667842
87	0x3d92280a	0.07136543
88	0xbcdeea85	-0.027211437
89	0xbd80e2ea	-0.062932804
90	0xbc69512f	-0.014240547
91	0xbd955a08	-0.07292563
92	0x3c2e2426	0.010628736
93	0xbb7aef7d	-0.0038289719
94	0xbbee24da	-0.0072675766
95	0x3d4c681d	0.049903978
96	0x3d943a78	0.072377145
97	0xbe0ba645	-0.13637646
98	0x3d9cd77d	0.07658289
99	0x3d476d9b	0.048688512
100	0xbadcce3b	-0.001684613
101	0x3cd72cc7	0.026266469
102	0x3dccf822	0.10008265
103	0x3dc03a11	0.09386075
104	0xbcc8d72a	-0.02451666
105	0x3c979f24	0.018508501
106	0xbdb0c059	-0.086304374
107	0x3d2bda0e	0.041956
108	0x3ce69f22	0.028152052
109	0xbbfe7ede	-0.0077665886
110	0x3d84ecda	0.06490488
111	0x3bd07309	0.0063613695
112	0xbd08fb8e	-0.033443026
113	0x3d302cb5	0.043011386
114	0x3c44ba86	0.012007361
115	0x3b066458	0.0020506587
116	0xbcaba48e	-0.02095249
117	0xbd5ccb04	-0.05390455
118	0xbcb3d6a8	-0.021952942
119	0xbd07932e	-0.033099346
120	0xbc993d05	-0.018705854
121	0xbd1fb06b	-0.038986605
122	0xbd38df17	-0.04513463
123	0x3d8c2ad7	0.068441086
124	0xbccd976c	-0.025096618
125	0x3c56094b	0.013063739
126	0x3d6bcc92	0.05756814
127	0xbd0c7070	-0.034286916
128	0xbdf4527e	-0.11929797
129	0x3d6d6cd2	0.057965107
130	0xbc23e3dd	-0.010003057
131	0xbd808b5e	-0.06276582
132	0x3d829166	0.06375389
133	0xbdc2d24c	-0.09512767
134	0x3c19350d	0.009351027
135	0xbd6e0f56	-0.058120094
136	0x3da33ae4	0.07970217
137	0xbd1742d6	-0.036928974
138	0xbcc4a64a	-0.024005074
139	0xbca47c5a	-0.020078827
140	0xbd98395d	-0.07432816
141	0x3d365746	0.044516824
142	0xbd3d7818	-0.04625711
143	0x3d5b3d94	0.053525522
144	0xbcf10626	-0.029421877
145	0x3d1a8b89	0.037730727
146	0x3d3f7aeb	0.046748083
147	0xbdc1aa25	-0.094562806
148	0xbc8f014b	-0.017456671
149	0xbbeb9ba3	-0.007190184
150	0xbd857fbf	-0.06518506
151	0x3d7c8814	0.06165321
152	0x3c9a18c9	0.018810647
153	0xbdd26d04	-0.10274699
154	0xbcb88a2e	-0.022526827
155	0xbd1e5ced	-0.03866284
156	0xbd1280b2	-0.035767265
157	0xbcf95ce0	-0.030439794
158	0x3d865f6a	0.065611675
159	0x3d46ea7a	0.048563458
160	0x3c32e882	0.010919692
161	0x3c423989	0.011854538
162	0x3d4b9822	0.049705632
163	0x3d949420	0.07254815
164	0x3c80826f	0.015687196
165	0x3d24a4d4	0.040196255
166	0xbd189863	-0.037254702
167	0x3d5c8d39	0.053845618
168	0xbb685727	-0.0035452337
169	0xbd434f68	-0.04768315
170	0xbc05797c	-0.00814664
171	0x3d88308c	0.066498846
172	0xbc5044b8	-0.012711696
173	0xbe153fa7	-0.14575063
174	0xbc8c9bcb	-0.017164132
175	0xbc90c77f	-0.017673252
176	0xbc86a819	-0.016437577
177	0x3cb253b3	0.021768427
178	0x3b3c5494	0.0028736936
179	0x3dd73625	0.10508374
180	0xbda1407c	-0.078736275
181	0xbd1a6fa0	-0.03770411
182	0x3dba1287	0.09085565
183	0x3ccf6de2	0.02532095
184	0xbdda841e	-0.106697306
185	0xbb2be69d	-0.0026229986
186	0xbc886de6	-0.016653966
187	0x3cafb288	0.021447435
188	0x3d1403d2	0.036136456
189	0xbd25698a	-0.040383853
190	0x3d255984	0.040368572
191	0xbda91933	-0.082567595
192	0xbc2f338f	-0.010693445
193	0xbc0d8f92	-0.008640187
194	0xbca378ea	-0.019955117
195	0x3e04085b	0.12893812
196	0x3d1fd810	0.039024413
197	0xbcf4b200	-0.029870033
198	0xbd5c3ccb	-0.053768914
199	0xbd9894c4	-0.0745025
200	0xbd0103eb	-0.031497877
201	0x3cb8108d	0.02246883
202	0xbdfea556	-0.12433879
203	0xbdb100c1	-0.08642722
204	0x3dc32885	0.09529213
205	0x3c50366d	0.012708289
206	0xbcdac682	-0.026705984
207	0x3dce0034	0.100586325
208	0x3d8ca82f	0.06868016
209	0xbe08ab17	-0.13346516
210	0x3caa1715	0.02076296
211	0x3d522d51	0.05131275
212	0x3ca2f9fe	0.019894596
213	0x3d4ffbd9	0.05077729
214	0x3d3830f8	0.044968575
215	0x3dc20f1b	0.094755374
216	0x3c3f18fa	0.01166367
217	0xbdaa7827	-0.083236985
218	0x3d7f37a5	0.062308926
219	0xbe10584e	-0.14096186
220	0x3cd7245c	0.026262455
221	0xbc82c54e	-0.015963223
222	0x3bfdef36	0.0077494634
223	0x3e0514c3	0.12996201
224	0x3d85cfd8	0.06533784
225	0x3d532657	0.051550236
226	0xbdd17df6	-0.10229103
227	0xbd5e9ca8	-0.054348618
228	0x3d05ab19	0.032633875
229	0x3d699529	0.057027016
230	0xbcf6eb01	-0.030141355
231	0x3e117a72	0.14206865
232	0xbe1bb615	-0.15206178
233	0x3df86309	0.121282645
234	0xbd46bf92	-0.04852254
235	0x3d98e288	0.074650824
236	0x3d361d03	0.04446126
237	0xbd5bfa8d	-0.05370574
238	0x3d8b3dee	0.067989215
239	0x3ce94d27	0.028479172
240	0x3d2d4491	0.04230172
241	0x3db6f48a	0.08933361
242	0x3d36fd1a	0.04467497
243	0x39bb8d76	0.00035772816
244	0xbd031bb0	-0.032008827
245	0x3d2f8360	0.0428499
246	0xbd840133	-0.06445541
247	0x3d09c778	0.033637494
248	0x3e11b060	0.14227438
249	0x3cd66519	0.026171254
250	0x3ab3d759	0.0013720795
251	0x3d014d34	0.031567767
252	0xbd0fd2d5	-0.035113174
253	0x3c84c8e2	0.01620907
254	0x3d629c40	0.055324793
255	0x3d8a28ff	0.06746101

dense2.bias f4 [16]
0	0xbd843cba	-0.06456895
1	0x3c4e5fa7	0.0125960475
2	0xbd192c9b	-0.037396055
3	0x3d3e8c7d	0.0465207
4	0x3db5d425	0.08878354
5	0xbda227c0	-0.07917738
6	0x3bf18361	0.007370398
7	0x3e090eaf	0.13384508
8	0xbd5affa7	-0.053466465
9	0x3b175d45	0.0023096364
10	0x3d7ca79a	0.061683275
11	0x3c2e3272	0.010632144
12	0xbb9e2d48	-0.0048271753
13	0xbd878600	-0.06617355
14	0x3d726749	0.05918053
15	0xbdd4658b	-0.1037093
