model.pth (torch, 37114 bytes, 5 tensors)

conv.weight f4 [48, 1, 3, 3]
0	0xbf80f635	-1.0075136
1	0xbc00665e	-0.007836906
2	0x3f7e2019	0.9926773
3	0xc0007dfd	-2.0076897
4	0xbc06bb4c	-0.008223366
5	0x3fff09c7	1.9924859
6	0xbf80fc67	-1.0077027
7	0xbbff27a7	-0.0077867093
8	0x3f7e2801	0.9927979
9	0xbf7e1cc8	-0.99262667
10	0xbfff041d	-1.992313
11	0xbf7e1481	-0.99250036
12	0x3bfb3955	0.0076667466
13	0x3c065ac0	0.008200347
14	0x3bfc7594	0.007704446
15	0x3f810154	1.007853
16	0x40007e4a	2.007708
17	0x3f80fa8a	1.0076458
18	0x3bf9a5f6	0.007618661
19	0x3c043bb6	0.008070877
20	0x3bf7b73a	0.007559684
21	0x3c0042ec	0.007828455
22	0x3f811bd8	1.0086622
23	0x3bffc60b	0.007805591
24	0x3c002359	0.007820928
25	0x3c00e1b4	0.007866312
26	0x3bf16eb1	0.007367932
27	0xbf800f31	-1.0004636
28	0xbb672833	-0.0035271763
29	0x3f7e04eb	0.99226254
30	0xc0001f2b	-2.0019023
31	0xbc072d9a	-0.008250618
32	0x3ffead00	1.9896545
33	0xbf807567	-1.0035828
34	0xbc0272e6	-0.007961964
35	0x3f7da7a0	0.990839
36	0xbf8032f1	-1.0015546
37	0xc0001134	-2.00105
38	0xbf80604f	-1.0029391
39	0xbbd045ce	-0.0063559776
40	0xbbfc61a1	-0.007702068
41	0xbbded837	-0.006800677
42	0x3f7e06a0	0.9922886
43	0x3ffee200	1.991272
44	0x3f7e43a9	0.9932199
45	0xbb1769ff	-0.002310395
46	0xbb93d09c	-0.004510952
47	0xbbdc314a	-0.006719743
48	0xbb75fe78	-0.0037535708
49	0x3f7e1ed6	0.992658
50	0xbc038856	-0.0080281105
51	0xbb922dea	-0.00446104
52	0xbbd541bd	-0.0065080808
53	0xbbddcc2e	-0.006768725
54	0xbf7f0fef	-0.9963369
55	0x3be1b89c	0.006888462
56	0x3f80f40a	1.0074475
57	0xbfff8066	-1.9961059
58	0x3beb8715	0.007187734
59	0x40007692	2.007237
60	0xbf7f1264	-0.99637437
61	0x3bd7fc34	0.0065913443
62	0x3f80e503	1.0069889
63	0xbf810096	-1.0078304
64	0xc0007ac7	-2.0074937
65	0xbf80e5d4	-1.0070138
66	0xbc055e51	-0.008140163
67	0xbc0e8190	-0.008697882
68	0xbbf424f4	-0.007450694
69	0x3f7e2013	0.9926769
70	0x3fff0892	1.992449
71	0x3f7e4fcb	0.99340504
72	0x3beb40ee	0.007179371
73	0x3c001118	0.0078165755
74	0x3c041116	0.008060714
75	0x3bed96e3	0.007250653
76	0x3f8117f0	1.008543
77	0x3c046d1a	0.008082652
78	0x3bf3b47c	0.007437287
79	0x3c029b6c	0.007971626
80	0x3c011498	0.007878445
81	0xbf80a9c7	-1.0051812
82	0xbbaa8373	-0.0052036582
83	0x3f7eb577	0.99495643
84	0xc00053ca	-2.005114
85	0xbbac2c2a	-0.005254288
86	0x3fff4fda	1.9946244
87	0xbf80b10d	-1.0054032
88	0xbbab7b0c	-0.005233174
89	0x3f7e9c96	0.9945768
90	0xbf7e9cb3	-0.99457854
91	0xbfff4f15	-1.9946009
92	0xbf7ea7c2	-0.9947473
93	0x3ba68813	0.0050821393
94	0x3bb7870b	0.005600815
95	0x3bb7db8a	0.005610888
96	0x3f8093c2	1.0045092
97	0x4000599b	2.005469
98	0x3f80b8cd	1.0056397
99	0xbbcbaeca	-0.006215905
100	0xbbca71cd	-0.006178117
101	0xbbc5f6ae	-0.0060413694
102	0xbbce00f9	-0.006286737
103	0x3f7e6e8f	0.9938745
104	0xbbc6e540	-0.006069809
105	0xbbcbbcdc	-0.006217582
106	0xbbcb4389	-0.006203119
107	0xbbc6349c	-0.006048752
108	0xbf7eae18	-0.99484396
109	0x3bafb8c5	0.0053626024
110	0x3f80d38b	1.0064558
111	0xbfff42a1	-1.9942209
112	0x3bc2f495	0.0059495666
113	0x40006c78	2.0066204
114	0xbf7ea06e	-0.99463546
115	0x3bbb4cea	0.005715956
116	0x3f80f0a9	1.0073444
117	0xbf80a936	-1.0051639
118	0xc0005326	-2.005075
119	0xbf80b316	-1.0054653
120	0xbbb21123	-0.0054341718
121	0xbbba2d66	-0.0056816814
122	0xbbb53494	-0.0055299494
123	0x3f7eaa87	0.99478954
124	0x3fff50a4	1.9946485
125	0x3f7ea77e	0.9947432
126	0xbbe80cdd	-0.0070816115
127	0xbbd84470	-0.0065999553
128	0xbbd95129	-0.0066319895
129	0xbbeaefa9	-0.007169683
130	0x3f7e55f3	0.993499
131	0xbbdcfb84	-0.00674385
132	0xbbe89981	-0.007098377
133	0xbbe0b4e6	-0.0068575023
134	0xbbe1707e	-0.006879865
135	0xbf7e26bf	-0.9927787
136	0xbb95e701	-0.004574657
137	0x3f7eb5a8	0.99495935
138	0xbffeee9e	-1.991657
139	0xbb0d0287	-0.00215164
140	0x3fff2c1b	1.9935335
141	0xbf7de5d2	-0.991788
142	0x39bb9205	0.00035776212
143	0x3f7e8ac8	0.99430513
144	0xbf7e8ba3	-0.9943182
145	0xbfff478f	-1.9943713
146	0xbf7e307b	-0.99292725
147	0x3bbc4e1d	0.0057466165
148	0x3be525fb	0.006993053
149	0x3baf622e	0.00535228
150	0x3f80affe	1.0053709
151	0x400030c5	2.0029767
152	0x3f802767	1.0012025
153	0x3b8a5076	0.0042210175
154	0x3b85190e	0.0040618246
155	0x3b83c581	0.004021347
156	0x3b9943a6	0.004677254
157	0x3f808768	1.0041323
158	0x3b7f63be	0.0038969363
159	0x3bc58bad	0.0060286135
160	0x3b8770bb	0.0041333116
161	0x3b4e5c5b	0.0031488154
162	0xbf7e312b	-0.99293774
163	0xbaccfd86	-0.0015639521
164	0x3f7efb72	0.99602425
165	0xbffee631	-1.9913999
166	0xbb38c5da	-0.00281941
167	0x3fff720d	1.995668
168	0xbf7d0fc4	-0.9885218
169	0xbb50c6d1	-0.0031856785
170	0x3f7ef562	0.99593174
171	0xbf7e9558	-0.9944663
172	0xbfff4b3e	-1.9944837
173	0xbf7ea01f	-0.99463075
174	0x3bb68822	0.0055704275
175	0x3bb49cb5	0.005511845
176	0x3bba7b57	0.005690973
177	0x3f809386	1.004502
178	0x3ffffbe3	1.9998745
179	0x3f807abf	1.0037459
180	0xbbb1e21b	-0.005428565
181	0xbbb052d1	-0.0053809662
182	0xbbafd1e5	-0.0053655975
183	0xbbb5015b	-0.005523843
184	0x3f7e9df4	0.9945977
185	0xbbb0ebba	-0.0053991945
186	0xbbb2a94f	-0.005452312
187	0xbbb2581d	-0.005442633
188	0xbbb0bcaf	-0.0053935866
189	0xbf808fd4	-1.0043893
190	0xbb6100b8	-0.0034332704
191	0x3f7f0dec	0.9963062
192	0xc0003949	-2.0034964
193	0xbb5941c6	-0.0033150776
194	0x3fff83c6	1.9962089
195	0xbf8075d2	-1.0035956
196	0xbb51798d	-0.003196332
197	0x3f7f0fe8	0.99633646
198	0xbf7ef53a	-0.99592936
199	0xbfff7949	-1.9958888
200	0xbf7f09f4	-0.9962456
201	0x3b828a85	0.003983798
202	0x3b6e7f60	0.003639184
203	0x3b493609	0.0030702373
204	0x3f7ed7db	0.9954812
205	0x3fff58dc	1.9948993
206	0x3f7eb6f0	0.9949789
207	0xbbac3d41	-0.0052563255
208	0xbba831c1	-0.0051328843
209	0xbba56294	-0.005047152
210	0xbba5e47b	-0.0050626374
211	0x3f7eb163	0.9948942
212	0xbba3149e	-0.004976823
213	0xbba2a3ad	-0.0049633593
214	0xbba1f20f	-0.0049421857
215	0xbb9fdeab	-0.004878839
216	0xbf7e87a2	-0.9942571
217	0x3bb94246	0.0056536524
218	0x3f80b23c	1.0054393
219	0xbfff3ecc	-1.9941039
220	0x3bbdd50d	0.00579322
221	0x40005950	2.0054512
222	0xbf7e8553	-0.99422187
223	0x3bbc18b2	0.0057402486
224	0x3f80b408	1.0054941
225	0xbf80b996	-1.0056636
226	0xc0005bf8	-2.0056133
227	0xbf80b4bf	-1.0055159
228	0xbbbf1eb0	-0.0058325157
229	0xbbbce277	-0.0057643014
230	0xbbb51e36	-0.005527283
231	0x3f7e8886	0.9942707
232	0x3fff4663	1.9943355
233	0x3f7e94d3	0.9944584
234	0xbbb2633c	-0.0054439586
235	0xbbb056cc	-0.0053814407
236	0xbbac14d2	-0.0052515054
237	0xbbafcf50	-0.0053652897
238	0x3f7eaa12	0.99478257
239	0xbba9f16b	-0.00518625
240	0xbbb04934	-0.0053798202
241	0xbbad581a	-0.0052900435
242	0xbbaa8f92	-0.005205103
243	0xbf7deb3c	-0.99187064
244	0xbb754e17	-0.0037430578
245	0x3f7efa55	0.99600726
246	0xbfff2d13	-1.993563
247	0x3b20c26b	0.0024529945
248	0x3fff6c5a	1.9954941
249	0xbf7ecd4e	-0.9953202
250	0x3bd68c96	0.006547521
251	0x3f7ebaee	0.9950398
252	0xbf7eb861	-0.9950009
253	0xbfff5d01	-1.9950258
254	0xbf7ece9f	-0.9953403
255	0x3ba9f5d8	0.0051867776

dense1.weight f4 [128, 48]
0	0x3b8ddfe2	0.0043296674
1	0xbbc17fe5	-0.005905139
2	0xbbbf0b69	-0.0058302176
3	0x3c2d80a1	0.01058975
4	0xbcac47c7	-0.02103032
5	0xbd7a8e31	-0.06117076
6	0x3d08cbb7	0.033397403
7	0xbc4c3fd5	-0.012466391
8	0x3c97e774	0.018542983
9	0xbd876b95	-0.066123165
10	0xbd0fd995	-0.03511961
11	0x3d4a68f2	0.04941649
12	0x3d50de6e	0.050993375
13	0x3d9fa91b	0.07795926
14	0x3d949e20	0.072567225
15	0x3d7e25a5	0.06204762
16	0xbc0d5c2c	-0.0086279325
17	0x39533b2a	0.00020144568
18	0x3d7fd1bc	0.062455878
19	0x3d152651	0.036413494
20	0xbdfa527b	-0.12222763
21	0x3d9c026d	0.0761765
22	0x3d659e93	0.05605943
23	0x3e059da9	0.13048424
24	0xbd120ab0	-0.035654724
25	0xbda132cf	-0.07871019
26	0xbde37fad	-0.111083366
27	0xbd88ce1d	-0.06679938
28	0xbd8522df	-0.06500792
29	0x3d077bcf	0.033077057
30	0x39ebb4a1	0.00044957272
31	0x3e0dc16e	0.13843319
32	0xbe077160	-0.13226843
33	0xbe0195d4	-0.12654811
34	0xbd42aa56	-0.047525726
35	0xbdb86e38	-0.090053976
36	0x3d819f60	0.063292265
37	0x3d37ebc4	0.044902578
38	0x3d3945d1	0.045232598
39	0xbd8395f1	-0.064250834
40	0xbda5c9dc	-0.08095142
41	0x3d657d4a	0.056027688
42	0x3de7772c	0.11302027
43	0x3c8afb08	0.016965404
44	0x3dd54642	0.10413791
45	0x3c440926	0.011965072
46	0xbe05eedb	-0.13079397
47	0x3d5a3bd4	0.053279713
48	0xbdd919b1	-0.10600603
49	0x3d859798	0.06523055
50	0xb9a1736d	-0.00030794312
51	0x3e0be427	0.13661252
52	0x3decbab3	0.115590475
53	0x3dd3dc0e	0.103447065
54	0xbd19bc55	-0.037533123
55	0xbd8c5dfd	-0.06853864
56	0x3d6240e6	0.055237673
57	0x3d9a26ae	0.07526909
58	0x3ddd6065	0.108094014
59	0xbdaf489c	-0.08558771
60	0x3c5394ca	0.012913892
61	0x3dad7ea6	0.08471422
62	0xbdc9b8d7	-0.098497085
63	0xbd863941	-0.06553889
64	0xbcec111b	-0.02881675
65	0xbd735136	-0.05940362
66	0x3e011521	0.12605716
67	0xbde908bc	-0.11378619
68	0xbd8d3c5f	-0.068962805
69	0x3df05804	0.11735538
70	0xbdd59ab0	-0.10429895
71	0xbc8cbaff	-0.01717901
72	0x3c8d6bfd	0.017263407
73	0xbc9b269d	-0.01893931
74	0xbe05c37d	-0.13062854
75	0x3dd10653	0.102062844
76	0xbdad3de5	-0.08459071
77	0x3d842797	0.06452864
78	0xbd32787f	-0.043571945
79	0x3de6b301	0.11264611
80	0xbdea21cb	-0.11432227
81	0xbe0c6792	-0.13711384
82	0xbbab4e15	-0.005227814
83	0x3dd4d003	0.103912376
84	0x3dec3dd4	0.1153523
85	0x3c948c8d	0.018133426
86	0x3da5d36d	0.08096967
87	0xba0e4947	-0.00054277893
88	0x3d52eaa8	0.051493317
89	0x3d148f8e	0.036269717
90	0xbd836b38	-0.06416935
91	0xbdc37615	-0.09544007
92	0xbd5af71e	-0.053458326
93	0xbdf5b256	-0.119969055
94	0x3d193877	0.037407365
95	0xbdbe35d2	-0.09287609
96	0xbce44df0	-0.027869195
97	0xbd10030d	-0.03515916
98	0xbd47986d	-0.04872935
99	0x3d36e698	0.044653505
100	0xbd170f70	-0.036879957
101	0xbd01b64e	-0.031668
102	0xbbaa9bad	-0.0052065463
103	0x3d9ee50a	0.077585295
104	0xba707bb0	-0.00091737043
105	0x3e05ac71	0.13054062
106	0x3cdf8e92	0.027289663
107	0xbc94dca9	-0.018171625
108	0xbe0f0a7c	-0.13968843
109	0xbdf3e7e6	-0.119094655
110	0xbd6b942d	-0.05751436
111	0xbd2ebbe0	-0.04265964
112	0xbdad5f48	-0.08465439
113	0x3dc6ba31	0.09703482
114	0xbdc91cc5	-0.098199405
115	0xbdb9cabf	-0.09071874
116	0xbe11e949	-0.14249147
117	0x3d03faf8	0.032221764
118	0xbda1cbe7	-0.079002194
119	0xbd209691	-0.03920609
120	0xbc5a4153	-0.013321239
121	0xbd10c874	-0.035347417
122	0x3d3322ec	0.043734476
123	0x3db79887	0.08964639
124	0x3c6f0856	0.01458939
125	0xbcc5c006	-0.024139415
126	0x3d94ca55	0.07265154
127	0x3e083c24	0.13304192
128	0x3d7717c9	0.060325418
129	0x3d88fbc8	0.066886485
130	0x3d0fab5b	0.035075527
131	0x3d9d5eb1	0.076840766
132	0xbd59d3e9	-0.05318061
133	0x3d8652be	0.065587506
134	0xbb8b6c27	-0.004254836
135	0xbcb1154a	-0.021616597
136	0xbdba4abf	-0.09096288
137	0xbc4ca1e5	-0.012489771
138	0xbe04d6fe	-0.12972638
139	0xbdff0904	-0.124528915
140	0xbdf5ea58	-0.12007588
141	0x3e0a5a57	0.13511024
142	0x3d80ca3b	0.062885724
143	0xbc846e82	-0.016165975
144	0xbba1626e	-0.004925064
145	0xbdb324fe	-0.0874729
146	0x3d867f39	0.065672345
147	0xbcadd5a5	-0.021220038
148	0x3db8aa0d	0.090168096
149	0x3d85fffb	0.06542965
150	0xbe14c312	-0.14527538
151	0x3d4908bc	0.049080595
152	0xbda50d61	-0.080591924
153	0xbd2f767d	-0.04283761
154	0xbdc5445d	-0.0963218
155	0x3da27a2a	0.07933457
156	0x3d67e0c9	0.056610856
157	0xbdce8e95	-0.10085789
158	0x3d94a3e1	0.0725782
159	0xbdb7fc8c	-0.08983716
160	0xbd91bfb5	-0.07116643
161	0x3d48f9da	0.049066402
162	0x3e008656	0.12551245
163	0x3d388dce	0.04505711
164	0x3d6baf7c	0.0575404
165	0x3d976f43	0.07394268
166	0xbc622e46	-0.013804978
167	0xbd196fb9	-0.037460063
168	0xbe0fb3f8	-0.14033496
169	0x3de4dd2f	0.11175
170	0xbdd5066f	-0.10401618
171	0x3d0a2b0e	0.033732466
172	0x3d9c548c	0.076333135
173	0x3e103b06	0.14085016
174	0x3d325854	0.043541268
175	0x3dc66d12	0.09688772
176	0x3b178c6c	0.002312447
177	0xbe08f165	-0.13373335
178	0x3d694082	0.056946285
179	0xbde18770	-0.11012161
180	0xbd535563	-0.051595103
181	0xbdd77ab0	-0.10521448
182	0xbdd288f9	-0.10280032
183	0xbdb7b877	-0.08970731
184	0xbcf8b7a2	-0.030361
185	0x3d8eceb2	0.06973018
186	0xbc81d9ac	-0.015850864
187	0x3db36a01	0.08760453
188	0x3d004283	0.03131343
189	0xbdae6191	-0.08514703
190	0x3dbc91d5	0.09207503
191	0x3d1d06a9	0.03833643
192	0x3d936da3	0.07198646
193	0xbdd28627	-0.10279494
194	0x3d812472	0.063057795
195	0x3d93fc1b	0.0722582
196	0x3dedf27f	0.11618518
197	0xbd4a4bbf	-0.049388643
198	0x3e005ce4	0.12535435
199	0x3d9f64a3	0.07782867
200	0x3d8866a9	0.06660206
201	0xbdcdc1e1	-0.10046745
202	0xbc89b87a	-0.016811598
203	0x3d838097	0.06421011
204	0xbc937be0	-0.018003404
205	0xbda0aada	-0.07845087
206	0x3dc8003c	0.0976567
207	0xbe0cc409	-0.13746656
208	0xbda7bb83	-0.08190062
209	0xbdd7c3a8	-0.10535365
210	0xbdeb85a8	-0.11500102
211	0x3e047504	0.12935263
212	0x3d180e30	0.037122905
213	0x3e0c5a5d	0.13706346
214	0x3da40114	0.08008018
215	0x3dd71ed8	0.1050393
216	0x3d5f053e	0.05444836
217	0x3d4ec233	0.05047817
218	0xbd6c1953	-0.05764134
219	0x3c33ef7e	0.010982392
220	0x3bc25ee9	0.0059317243
221	0xbb4080fc	-0.0029373756
222	0xbd9572cc	-0.072972864
223	0xbe0eb860	-0.13937521
224	0xbe1934f1	-0.14961602
225	0xbd3c107b	-0.045914154
226	0x3d5312d2	0.05153162
227	0xbc802064	-0.015640445
228	0x3dc39c3a	0.09551282
229	0x3d29c609	0.041448627
230	0x3e04b66e	0.12960216
231	0x3dab7e24	0.08373669
232	0xbd6896cf	-0.056784447
233	0xbe033e61	-0.12816764
234	0x3df9b05c	0.12191841
235	0x3db118d4	0.08647314
236	0x3dc08896	0.09401052
237	0x3d85fcf4	0.065423876
238	0x3d91d9ec	0.071216434
239	0x3d82120d	0.06351099
240	0x3d82fc2e	0.06395756
241	0x3c5e5ef9	0.013572448
242	0xbd79e292	-0.06100709
243	0x3cc7be9d	0.024382884
244	0xbdfb5330	-0.12271726
245	0xbdef614e	-0.11688481
246	0xbda420de	-0.080140814
247	0x3daee028	0.08538848
248	0xbc57570b	-0.013143311
249	0x3da855c0	0.082194805
250	0xbd6fc661	-0.0585388
251	0xbdd83206	-0.10556416
252	0xbe0c6d6b	-0.13713615
253	0x3deb3167	0.11484032
254	0xbdea8078	-0.11450285
255	0x3c863355	0.016381899

dense1.bias f4 [128]
0	0xbc93c320	-0.018037379
1	0x3de8bd25	0.113642015
2	0xbd11aaa7	-0.035563137
3	0x3e0724ce	0.13197634
4	0xbd56e37d	-0.052463043
5	0x3d52e632	0.051489063
6	0xbd49de8a	-0.049284495
7	0x3de41d05	0.111383475
8	0x3db740b0	0.08947885
9	0x3d075414	0.033039168
10	0xbdac9905	-0.08427624
11	0xbd6f30d1	-0.058396164
12	0x3d4b6dba	0.04966519
13	0xbd66bb5e	-0.05633103
14	0x3e08a61e	0.13344619
15	0x3d1e9248	0.038713723
16	0xbdcc0716	-0.09962289
17	0xbd8e5d6c	-0.069514126
18	0x3d61a495	0.0550886
19	0xbdff3c83	-0.124627136
20	0x3d7e4be9	0.062084112
21	0x3c4f9f2c	0.012672227
22	0x3d4e44e1	0.050358657
23	0x3dffcaf3	0.12489881
24	0xbdc56fa7	-0.096404366
25	0x3e030f27	0.12798749
26	0xbdf94c5c	-0.121727675
27	0x3ce5866a	0.028018195
28	0x3dd103f1	0.1020583
29	0x3db173d7	0.08664673
30	0x3df6096a	0.12013514
31	0xbdf516fc	-0.119672745
32	0x3e068470	0.13136458
33	0x3cb2a9d2	0.021809492
34	0xbd56a788	-0.052405864
35	0x3d42551b	0.047444444
36	0x3dd03c28	0.10167724
37	0x3df898dc	0.121385306
38	0xbc028c2d	-0.007967991
39	0xbd1b368d	-0.03789382
40	0x3d85bceb	0.06530174
41	0xbd33efc1	-0.04392982
42	0x3de3a27a	0.11114974
43	0x3d02f3f5	0.031970937
44	0xbc96f8ee	-0.018429246
45	0xbe15aa35	-0.1461571
46	0xbe0d80b7	-0.13818632
47	0xbd5688c5	-0.052376527
48	0xbca356f0	-0.019938916
49	0xbe120130	-0.14258265
50	0xbde05671	-0.109539874
51	0x3c8fab4e	0.01753774
52	0xbdd6693d	-0.10469291
53	0x3d23b38c	0.03996615
54	0xbd8c8f86	-0.068633124
55	0xbb635100	-0.003468573
56	0x3d8433b2	0.064551726
57	0x3d7974d5	0.060902435
58	0x3d8a5f85	0.067565
59	0x3d8f9ca8	0.07012302
60	0x3d05c3ef	0.03265756
61	0xbdfe5604	-0.1241875
62	0xbd3dda3c	-0.046350703
63	0xbd9ebd3c	-0.07750937
64	0x3def83d5	0.11695067
65	0x3d544bc6	0.051830076
66	0x3ddc7b35	0.107656874
67	0x3dbda5c0	0.0926013
68	0xbd107691	-0.035269324
69	0x3d906116	0.07049768
70	0xbde4e46d	-0.11176381
71	0xbe17310e	-0.14764807
72	0x3dfa56ee	0.12223612
73	0xbda864c5	-0.08222345
74	0xbe187a49	-0.14890398
75	0xbd7a0e10	-0.061048567
76	0x3d5eea7f	0.05442285
77	0x3df858af	0.1212629
78	0xbda21262	-0.079136625
79	0x3e0d5fd0	0.13806081
80	0x3d02471f	0.031806108
81	0xbd54922f	-0.051897224
82	0x3deef891	0.11668504
83	0xbdf808b5	-0.12111036
84	0xbd157ddc	-0.036496982
85	0x3d0d8657	0.034551945
86	0xbe13b482	-0.14424327
87	0x3de07f09	0.1096173
88	0x3d0b2535	0.03397103
89	0x3d46fe2b	0.048582237
90	0xba0d6aee	-0.0005394657
91	0x3d805546	0.062662646
92	0x3cac6892	0.021045957
93	0x3de25f56	0.1105334
94	0xbc8bab15	-0.017049352
95	0xbde4ef4b	-0.11178454
96	0xbe0be798	-0.13662565
97	0x3d9d40b4	0.07678357
98	0x3e0e3755	0.13888295
99	0x3dc10468	0.094246686
100	0x3d291ce4	0.041287318
101	0x3dc6b30e	0.09702121
102	0x3c733a76	0.014845481
103	0xbd1302d1	-0.035891358
104	0x3cc33a93	0.023831641
105	0x3e0f06b2	0.13967398
106	0xbdac22ec	-0.08405098
107	0x3d6909c4	0.05689408
108	0xbdfc4f4a	-0.12319811
109	0xbd7dc965	-0.061959643
110	0x3de94c45	0.113915004
111	0x3e0fdd18	0.14049184
112	0xbda87f0e	-0.08227359
113	0xbd8b4138	-0.06799549
114	0x3d7dde88	0.0619798
115	0x3c95dabf	0.018292783
116	0x3d190feb	0.037368696
117	0xbde452bb	-0.11148592
118	0x3e0b3ebc	0.1359815
119	0xbdaea6bf	-0.08527898
120	0xbde117e0	-0.10990882
121	0xbc8412a0	-0.016122162
122	0x3dd63e16	0.10461061
123	0x3d57f2ec	0.052721903
124	0xbdd72891	-0.10505784
125	0xbe09eac0	-0.13468456
126	0x3df59b3c	0.11992499
127	0x3b132a48	0.0022455622

dense2.weight f4 [16, 128]
0	0x3b508a19	0.0031820594
1	0xbb10da74	-0.0022102864
2	0x3af78827	0.0018885181
3	0xbb09ff68	-0.0021056775
4	0x3a981a8e	0.0011604594
5	0x39c541c7	0.00037623776
6	0xbaf8649c	-0.0018950882
7	0x368b2db8	4.147845e-06
8	0x391f6ff7	0.00015205132
9	0x3a3b4940	0.0007144399
10	0xba0810aa	-0.00051904714
11	0xbb5fdcf3	-0.0034158796
12	0x3a8546e4	0.0010168222
13	0xbaaef108	-0.0013346979
14	0x39ef1a03	0.00045605013
15	0x3ba4eeef	0.005033366
16	0x398e345c	0.0002712336
17	0xb91d20a0	-0.0001498484
18	0x3a5ecca9	0.00084991247
19	0x397908c9	0.00023749763
20	0x3ae38280	0.0017357618
21	0x3a42f9d9	0.0007437743
22	0xba206882	-0.00061190885
23	0xbb950a77	-0.0045483666
24	0xba7687d3	-0.00094043947
25	0xba3746ee	-0.00069914653
26	0xba8ee45e	-0.0010901799
27	0x3a88c5da	0.0010434941
28	0x3a860c3d	0.0010227036
29	0xbabaf3da	-0.0014263347
30	0x3a8a3dcc	0.0010546981
31	0xbaa84b64	-0.0012839851
32	0x3982e3e0	0.00024965312
33	0xba8e3e40	-0.0010852292
34	0x3a019432	0.00049430423
35	0xba89e5e6	-0.0010520786
36	0xbb52df25	-0.0032176462
37	0x39800434	0.00024417194
38	0xbb0454cf	-0.0020192151
39	0x3ab4cef6	0.0013794589
40	0xbab88d36	-0.001408017
41	0x3abd91ac	0.0014462969
42	0x3727f4bb	1.0010956e-05
43	0x399078cb	0.00027555818
44	0xb9f0e37b	-0.00045945853
45	0x3aa67b9f	0.0012701637
46	0xbab1377a	-0.0013520562
47	0x3a49fb01	0.0007704944
48	0x3a586b6d	0.0008255754
49	0xba0acf0b	-0.0005295134
50	0xb9e7fb84	-0.00044247147
51	0x35df0dfe	1.6618867e-06
52	0x3b7049f6	0.0036665178
53	0x3a3a6a8d	0.0007111214
54	0x3ab6d6bf	0.0013949497
55	0xba0b41ea	-0.0005312251
56	0x39e235ec	0.00043146254
57	0xbaaac631	-0.0013029036
58	0x398fadc4	0.0002740455
59	0x3a049944	0.0005058239
60	0x3b207221	0.0024482089
61	0x3b0108b4	0.0019689025
62	0x3a128aad	0.00055901223
63	0x3ae8753f	0.0017735137
64	0xbaeabd64	-0.0017909226
65	0xba5a3f65	-0.00083254866
66	0xbb653163	-0.0034972064
67	0xbab43200	-0.0013747811
68	0x3ab3d027	0.001371865
69	0xb97efc62	-0.00024317348
70	0xbaa7be46	-0.0012797795
71	0x3a6c8aef	0.0009023388
72	0xbb175e18	-0.0023096856
73	0x3916c346	0.0001437786
74	0x3ac77f35	0.0015220406
75	0x3abb244c	0.0014277785
76	0x3a5756f2	0.0008214555
77	0xbb409442	-0.0029385244
78	0xb925bc3b	-0.00015805748
79	0x3a5ca995	0.00084176037
80	0xba04b839	-0.00050628517
81	0xbacbea39	-0.0015557475
82	0xbaced09f	-0.0015778727
83	0x3a31482b	0.0006762768
84	0xbb0d8e20	-0.0021599606
85	0xbab93379	-0.001412972
86	0x39fb25d3	0.00047902632
87	0xbb26c126	-0.0025444715
88	0xbae9a2a8	-0.0017824965
89	0xbb225ce7	-0.0024774612
90	0x3ba330ff	0.004980206
91	0xbb06f56d	-0.0020593063
92	0xb9c3c8c2	-0.00037342875
93	0x3a9280c8	0.0011177296
94	0x3a776844	0.0009437839
95	0x3a7ca392	0.0009637411
96	0x3b71d965	0.003690326
97	0xba82199f	-0.0009925849
98	0xbab7045e	-0.0013963094
99	0xbb388856	-0.0028157434
100	0xb98abd48	-0.00026462437
101	0xb9867637	-0.0002564655
102	0xba94ad74	-0.0011343197
103	0xb973a269	-0.00023234788
104	0x3aab86e3	0.0013086464
105	0x39fc03d5	0.0004806804
106	0xba0effeb	-0.0005455005
107	0xbb2fb010	-0.0026807822
108	0xba86eb56	-0.0010293524
109	0x3af18b30	0.0018428322
110	0xbaaa18ff	-0.001297742
111	0xbb1a5c30	-0.0023553483
112	0x3aa45a6c	0.0012539155
113	0xba89785c	-0.001048814
114	0xb8adeee3	-8.293779e-05
115	0xba59f236	-0.00083139853
116	0x3b3274fc	0.0027230373
117	0xba19a099	-0.0005860418
118	0xba26884b	-0.00063527067
119	0xba7ae900	-0.0009571463
120	0xba11c331	-0.0005560397
121	0xba2bc715	-0.0006552798
122	0x3ac01d5c	0.0014657187
123	0x39d7535b	0.000410701
124	0x384d106a	4.8891096e-05
125	0x3ad4c5b1	0.0016233233
126	0xba5158dc	-0.00079859584
127	0xbadef4d6	-0.0017010223
128	0x3a73e2a2	0.0009303485
129	0xbb266ca4	-0.0025394345
130	0x3b60b7f0	0.0034289323
131	0x3b23407c	0.0024910262
132	0x3b2a1cb6	0.0025957054
133	0x3b310a05	0.0027014029
134	0xba125025	-0.00055814005
135	0x3b2336e8	0.0024904553
136	0x3b15f72c	0.0022882922
137	0x3b009101	0.001961768
138	0x3910fe28	0.00013827591
139	0x3afe1385	0.0019384479
140	0x3b439cbb	0.0029848057
141	0x3a3f5af1	0.0007299623
142	0xba963987	-0.0011461236
143	0x3ba27c69	0.0049586785
144	0x3b53d065	0.0032320258
145	0x3aba22e5	0.0014201073
146	0x3b22f405	0.0024864685
147	0x3af1779d	0.0018422488
148	0x3b4ef070	0.0031576417
149	0x39e49b4a	0.00043603248
150	0x3b0461f5	0.0020199989
151	0xba38b872	-0.00070465275
152	0x3b286627	0.0025695653
153	0x3b07fe74	0.002075103
154	0x3b60fe1c	0.0034331148
155	0x3b37a43e	0.002802148
156	0x3b658ab8	0.003502531
157	0x3b2377ef	0.0024943312
158	0x3b7ad195	0.0038271893
159	0x39f2e36b	0.00046327277
160	0x3ac339f3	0.001489459
161	0x3b0d8a13	0.0021597191
162	0x3b43d999	0.0029884337
163	0x3b1a7db2	0.0023573455
164	0xbaa3340e	-0.0012451427
165	0x3b541e21	0.003236659
166	0x397b5b6b	0.00023971281
167	0x3b7d21da	0.0038624913
168	0x3aa1b728	0.001233791
169	0x3b13766a	0.0022501
170	0x3b5a120a	0.0033274912
171	0x3b5deeab	0.003386418
172	0x3b4fd231	0.0031710977
173	0x3b8f65a3	0.0043761297
174	0xbc092097	-0.008369586
175	0x3b6ecd97	0.003643846
176	0x3b40b635	0.002940548
177	0xba2ee6ae	-0.0006671947
178	0x3b160dc5	0.002289639
179	0x3b1221a7	0.002229789
180	0x3ba345cb	0.004982685
181	0x3a231078	0.00062204106
182	0x3b8b0d12	0.0042435015
183	0x3b7149c1	0.0036817642
184	0x3b2016b6	0.00244276
185	0x3b08d73f	0.002088025
186	0x3b79d54b	0.0038121517
187	0x3b3d7f6a	0.0028915056
188	0x3bb10ad1	0.0054029007
189	0x3b3012f4	0.0026866766
190	0x3b856450	0.004070796
191	0x3b198ad2	0.002342869
192	0x3b04cebd	0.0020264827
193	0x3b352e4d	0.0027646006
194	0xb9132c47	-0.00014035507
195	0x3aef726f	0.0018268357
196	0x3b170693	0.002304469
197	0x3b421110	0.002961222
198	0x3b36a8c4	0.0027871588
199	0x3b4b7c2b	0.0031049352
200	0xbabddff9	-0.0014486305
201	0x3b95e3db	0.0045742816
202	0x3b7b2d1a	0.0038326443
203	0x3b76e245	0.0037671488
204	0x3b63a4b6	0.0034735627
205	0x3b3cb265	0.0028792855
206	0x3b1278a6	0.0022349744
207	0x3b5a0409	0.0033266565
208	0x3afbf4eb	0.0019222772
209	0x3b12afdd	0.0022382655
210	0xb8471905	-4.74686e-05
211	0x3b87a85b	0.0041399426
212	0x39a6a430	0.00031784317
213	0x3b1a1db7	0.0023516247
214	0x3b48318c	0.003054711
215	0x3ae989d3	0.0017817564
216	0x3a22eaf2	0.0006214819
217	0x3ac0289b	0.0014660539
218	0x3b807983	0.0039207353
219	0x3a0b14f8	0.0005305554
220	0x3b4c70c2	0.0031195139
221	0x3b1311c0	0.0022441
222	0x3b20622f	0.0024472584
223	0x3b3e3482	0.0029022996
224	0x3b285eb3	0.002569121
225	0x3b5b9440	0.0033505112
226	0x3b579b2e	0.003289889
227	0xb93a6aca	-0.00017778124
228	0x3b34ce30	0.0027588718
229	0x3a9cd520	0.0011965372
230	0x3b116a55	0.0022188623
231	0x3ae5df6b	0.0017537897
232	0x3b766dee	0.0037602144
233	0x3b2ac3e5	0.0026056704
234	0x3adb6120	0.001673732
235	0x3a35a7ea	0.0006929623
236	0x3b3a0864	0.002838635
237	0x3b835778	0.00400823
238	0x3b42f5c6	0.0029748543
239	0x3b34a4cf	0.0027564054
240	0x3b7870c0	0.0037909
241	0x3b139e46	0.0022524758
242	0x3a53f199	0.0008085012
243	0x3a20141d	0.0006106513
244	0x3b4f792f	0.0031657924
245	0x3b5c09c5	0.003357516
246	0x3b33f81c	0.0027461117
247	0x3b17e503	0.0023177273
248	0x3b5651e6	0.0032702624
249	0x3b0ab55e	0.0021165232
250	0x3b31b685	0.0027116847
251	0x3b26e38a	0.0025465214
252	0x3b29c379	0.0025903864
253	0x3b8557bd	0.004069297
254	0x3b121867	0.0022292377
255	0x3b0051cb	0.0019580002

dense2.bias f4 [16]
0	0x3dadd157	0.08487194
1	0x3da6c4d3	0.0814301
2	0xbda69c3c	-0.08135268
3	0xbc8ea72a	-0.017413694
4	0xbd0827dc	-0.033241138
5	0x3c0c9eb3	0.008582759
6	0x3d5ead8e	0.054364733
7	0xbd979e4a	-0.07403238
8	0x3cf57eeb	0.029967746
9	0xbd15db0f	-0.036585864
10	0x3c98c602	0.018649105
11	0xbd0a02ff	-0.033694264
12	0xbcef813b	-0.029236427
13	0xbd912263	-0.07086637
14	0xbc133ec9	-0.008987137
15	0xbcaa5cc3	-0.020796185
